…
Velocity data shape: (4, 1000, 512, 512, 2)
Particles data shape: (4, 1000, 512, 512, 1)
Combined data shape: (4, 1000, 512, 512, 3)
x shape: torch.Size([3992, 3, 512, 512])
y shape: torch.Size([3992, 3, 512, 512])
---------Using data normalizer---------------
Train dataset size: 3193
Validation dataset size: 399
Test dataset size: 400
<class 'torch.Tensor'> -0.004183619748800993 -0.004201172385364771 0.9964262247085571 0.9986693263053894
Sample Input shape: torch.Size([32, 3, 512, 512])
Sample Output shape: torch.Size([32, 3, 512, 512])
CNO2d(
  (lift): LiftProjectBlock(
    (inter_CNOBlock): CNOBlock(
      (convolution): Conv2d(3, 64, kernel_size=(3, 3), stride=(1, 1), padding=(1, 1))
      (batch_norm): Identity()
      (act): CNO_LReLu(
        (act): LeakyReLU(negative_slope=0.01)
      )
    )
    (convolution): Conv2d(64, 8, kernel_size=(3, 3), stride=(1, 1), padding=(1, 1))
  )
  (project): LiftProjectBlock(
    (inter_CNOBlock): CNOBlock(
      (convolution): Conv2d(16, 64, kernel_size=(3, 3), stride=(1, 1), padding=(1, 1))
      (batch_norm): Identity()
      (act): CNO_LReLu(
        (act): LeakyReLU(negative_slope=0.01)
      )
    )
    (convolution): Conv2d(64, 3, kernel_size=(3, 3), stride=(1, 1), padding=(1, 1))
  )
  (encoder): ModuleList(
    (0): CNOBlock(
      (convolution): Conv2d(8, 16, kernel_size=(3, 3), stride=(1, 1), padding=(1, 1))
      (batch_norm): Identity()
      (act): CNO_LReLu(
        (act): LeakyReLU(negative_slope=0.01)
      )
    )
    (1): CNOBlock(
      (convolution): Conv2d(16, 32, kernel_size=(3, 3), stride=(1, 1), padding=(1, 1))
      (batch_norm): Identity()
      (act): CNO_LReLu(
        (act): LeakyReLU(negative_slope=0.01)
      )
    )
    (2): CNOBlock(
      (convolution): Conv2d(32, 64, kernel_size=(3, 3), stride=(1, 1), padding=(1, 1))
      (batch_norm): Identity()
      (act): CNO_LReLu(
        (act): LeakyReLU(negative_slope=0.01)
      )
    )
    (3): CNOBlock(
      (convolution): Conv2d(64, 128, kernel_size=(3, 3), stride=(1, 1), padding=(1, 1))
      (batch_norm): Identity()
      (act): CNO_LReLu(
        (act): LeakyReLU(negative_slope=0.01)
      )
    )
  )
  (ED_expansion): ModuleList(
    (0): CNOBlock(
      (convolution): Conv2d(8, 8, kernel_size=(3, 3), stride=(1, 1), padding=(1, 1))
      (batch_norm): Identity()
      (act): CNO_LReLu(
        (act): LeakyReLU(negative_slope=0.01)
      )
    )
    (1): CNOBlock(
      (convolution): Conv2d(16, 16, kernel_size=(3, 3), stride=(1, 1), padding=(1, 1))
      (batch_norm): Identity()
      (act): CNO_LReLu(
        (act): LeakyReLU(negative_slope=0.01)
      )
    )
    (2): CNOBlock(
      (convolution): Conv2d(32, 32, kernel_size=(3, 3), stride=(1, 1), padding=(1, 1))
      (batch_norm): Identity()
      (act): CNO_LReLu(
        (act): LeakyReLU(negative_slope=0.01)
      )
    )
    (3): CNOBlock(
      (convolution): Conv2d(64, 64, kernel_size=(3, 3), stride=(1, 1), padding=(1, 1))
      (batch_norm): Identity()
      (act): CNO_LReLu(
        (act): LeakyReLU(negative_slope=0.01)
      )
    )
    (4): CNOBlock(
      (convolution): Conv2d(128, 128, kernel_size=(3, 3), stride=(1, 1), padding=(1, 1))
      (batch_norm): Identity()
      (act): CNO_LReLu(
        (act): LeakyReLU(negative_slope=0.01)
      )
    )
  )
  (decoder): ModuleList(
    (0): CNOBlock(
      (convolution): Conv2d(128, 64, kernel_size=(3, 3), stride=(1, 1), padding=(1, 1))
      (batch_norm): Identity()
      (act): CNO_LReLu(
        (act): LeakyReLU(negative_slope=0.01)
      )
    )
    (1): CNOBlock(
      (convolution): Conv2d(128, 32, kernel_size=(3, 3), stride=(1, 1), padding=(1, 1))
      (batch_norm): Identity()
      (act): CNO_LReLu(
        (act): LeakyReLU(negative_slope=0.01)
      )
    )
    (2): CNOBlock(
      (convolution): Conv2d(64, 16, kernel_size=(3, 3), stride=(1, 1), padding=(1, 1))
      (batch_norm): Identity()
      (act): CNO_LReLu(
        (act): LeakyReLU(negative_slope=0.01)
      )
    )
    (3): CNOBlock(
      (convolution): Conv2d(32, 8, kernel_size=(3, 3), stride=(1, 1), padding=(1, 1))
      (batch_norm): Identity()
      (act): CNO_LReLu(
        (act): LeakyReLU(negative_slope=0.01)
      )
    )
  )
  (res_net_neck): ResNet(
    (res_nets): Sequential(
      (0): ResidualBlock(
        (convolution1): Conv2d(128, 128, kernel_size=(3, 3), stride=(1, 1), padding=(1, 1))
        (convolution2): Conv2d(128, 128, kernel_size=(3, 3), stride=(1, 1), padding=(1, 1))
        (batch_norm1): Identity()
        (batch_norm2): Identity()
        (act): CNO_LReLu(
          (act): LeakyReLU(negative_slope=0.01)
        )
      )
      (1): ResidualBlock(
        (convolution1): Conv2d(128, 128, kernel_size=(3, 3), stride=(1, 1), padding=(1, 1))
        (convolution2): Conv2d(128, 128, kernel_size=(3, 3), stride=(1, 1), padding=(1, 1))
        (batch_norm1): Identity()
        (batch_norm2): Identity()
        (act): CNO_LReLu(
          (act): LeakyReLU(negative_slope=0.01)
        )
      )
      (2): ResidualBlock(
        (convolution1): Conv2d(128, 128, kernel_size=(3, 3), stride=(1, 1), padding=(1, 1))
        (convolution2): Conv2d(128, 128, kernel_size=(3, 3), stride=(1, 1), padding=(1, 1))
        (batch_norm1): Identity()
        (batch_norm2): Identity()
        (act): CNO_LReLu(
          (act): LeakyReLU(negative_slope=0.01)
        )
      )
      (3): ResidualBlock(
        (convolution1): Conv2d(128, 128, kernel_size=(3, 3), stride=(1, 1), padding=(1, 1))
        (convolution2): Conv2d(128, 128, kernel_size=(3, 3), stride=(1, 1), padding=(1, 1))
        (batch_norm1): Identity()
        (batch_norm2): Identity()
        (act): CNO_LReLu(
          (act): LeakyReLU(negative_slope=0.01)
        )
      )
    )
  )
  (res_nets): Sequential(
    (0): ResNet(
      (res_nets): Sequential(
        (0): ResidualBlock(
          (convolution1): Conv2d(8, 8, kernel_size=(3, 3), stride=(1, 1), padding=(1, 1))
          (convolution2): Conv2d(8, 8, kernel_size=(3, 3), stride=(1, 1), padding=(1, 1))
          (batch_norm1): Identity()
          (batch_norm2): Identity()
          (act): CNO_LReLu(
            (act): LeakyReLU(negative_slope=0.01)
          )
        )
        (1): ResidualBlock(
          (convolution1): Conv2d(8, 8, kernel_size=(3, 3), stride=(1, 1), padding=(1, 1))
          (convolution2): Conv2d(8, 8, kernel_size=(3, 3), stride=(1, 1), padding=(1, 1))
          (batch_norm1): Identity()
          (batch_norm2): Identity()
          (act): CNO_LReLu(
            (act): LeakyReLU(negative_slope=0.01)
          )
        )
        (2): ResidualBlock(
          (convolution1): Conv2d(8, 8, kernel_size=(3, 3), stride=(1, 1), padding=(1, 1))
          (convolution2): Conv2d(8, 8, kernel_size=(3, 3), stride=(1, 1), padding=(1, 1))
          (batch_norm1): Identity()
          (batch_norm2): Identity()
          (act): CNO_LReLu(
            (act): LeakyReLU(negative_slope=0.01)
          )
        )
        (3): ResidualBlock(
          (convolution1): Conv2d(8, 8, kernel_size=(3, 3), stride=(1, 1), padding=(1, 1))
          (convolution2): Conv2d(8, 8, kernel_size=(3, 3), stride=(1, 1), padding=(1, 1))
          (batch_norm1): Identity()
          (batch_norm2): Identity()
          (act): CNO_LReLu(
            (act): LeakyReLU(negative_slope=0.01)
          )
        )
      )
    )
    (1): ResNet(
      (res_nets): Sequential(
        (0): ResidualBlock(
          (convolution1): Conv2d(16, 16, kernel_size=(3, 3), stride=(1, 1), padding=(1, 1))
          (convolution2): Conv2d(16, 16, kernel_size=(3, 3), stride=(1, 1), padding=(1, 1))
          (batch_norm1): Identity()
          (batch_norm2): Identity()
          (act): CNO_LReLu(
            (act): LeakyReLU(negative_slope=0.01)
          )
        )
        (1): ResidualBlock(
          (convolution1): Conv2d(16, 16, kernel_size=(3, 3), stride=(1, 1), padding=(1, 1))
          (convolution2): Conv2d(16, 16, kernel_size=(3, 3), stride=(1, 1), padding=(1, 1))
          (batch_norm1): Identity()
          (batch_norm2): Identity()
          (act): CNO_LReLu(
            (act): LeakyReLU(negative_slope=0.01)
          )
        )
        (2): ResidualBlock(
          (convolution1): Conv2d(16, 16, kernel_size=(3, 3), stride=(1, 1), padding=(1, 1))
          (convolution2): Conv2d(16, 16, kernel_size=(3, 3), stride=(1, 1), padding=(1, 1))
          (batch_norm1): Identity()
          (batch_norm2): Identity()
          (act): CNO_LReLu(
            (act): LeakyReLU(negative_slope=0.01)
          )
        )
        (3): ResidualBlock(
          (convolution1): Conv2d(16, 16, kernel_size=(3, 3), stride=(1, 1), padding=(1, 1))
          (convolution2): Conv2d(16, 16, kernel_size=(3, 3), stride=(1, 1), padding=(1, 1))
          (batch_norm1): Identity()
          (batch_norm2): Identity()
          (act): CNO_LReLu(
            (act): LeakyReLU(negative_slope=0.01)
          )
        )
      )
    )
    (2): ResNet(
      (res_nets): Sequential(
        (0): ResidualBlock(
          (convolution1): Conv2d(32, 32, kernel_size=(3, 3), stride=(1, 1), padding=(1, 1))
          (convolution2): Conv2d(32, 32, kernel_size=(3, 3), stride=(1, 1), padding=(1, 1))
          (batch_norm1): Identity()
          (batch_norm2): Identity()
          (act): CNO_LReLu(
            (act): LeakyReLU(negative_slope=0.01)
          )
        )
        (1): ResidualBlock(
          (convolution1): Conv2d(32, 32, kernel_size=(3, 3), stride=(1, 1), padding=(1, 1))
          (convolution2): Conv2d(32, 32, kernel_size=(3, 3), stride=(1, 1), padding=(1, 1))
          (batch_norm1): Identity()
          (batch_norm2): Identity()
          (act): CNO_LReLu(
            (act): LeakyReLU(negative_slope=0.01)
          )
        )
        (2): ResidualBlock(
          (convolution1): Conv2d(32, 32, kernel_size=(3, 3), stride=(1, 1), padding=(1, 1))
          (convolution2): Conv2d(32, 32, kernel_size=(3, 3), stride=(1, 1), padding=(1, 1))
          (batch_norm1): Identity()
          (batch_norm2): Identity()
          (act): CNO_LReLu(
            (act): LeakyReLU(negative_slope=0.01)
          )
        )
        (3): ResidualBlock(
          (convolution1): Conv2d(32, 32, kernel_size=(3, 3), stride=(1, 1), padding=(1, 1))
          (convolution2): Conv2d(32, 32, kernel_size=(3, 3), stride=(1, 1), padding=(1, 1))
          (batch_norm1): Identity()
          (batch_norm2): Identity()
          (act): CNO_LReLu(
            (act): LeakyReLU(negative_slope=0.01)
          )
        )
      )
    )
    (3): ResNet(
      (res_nets): Sequential(
        (0): ResidualBlock(
          (convolution1): Conv2d(64, 64, kernel_size=(3, 3), stride=(1, 1), padding=(1, 1))
          (convolution2): Conv2d(64, 64, kernel_size=(3, 3), stride=(1, 1), padding=(1, 1))
          (batch_norm1): Identity()
          (batch_norm2): Identity()
          (act): CNO_LReLu(
            (act): LeakyReLU(negative_slope=0.01)
          )
        )
        (1): ResidualBlock(
          (convolution1): Conv2d(64, 64, kernel_size=(3, 3), stride=(1, 1), padding=(1, 1))
          (convolution2): Conv2d(64, 64, kernel_size=(3, 3), stride=(1, 1), padding=(1, 1))
          (batch_norm1): Identity()
          (batch_norm2): Identity()
          (act): CNO_LReLu(
            (act): LeakyReLU(negative_slope=0.01)
          )
        )
        (2): ResidualBlock(
          (convolution1): Conv2d(64, 64, kernel_size=(3, 3), stride=(1, 1), padding=(1, 1))
          (convolution2): Conv2d(64, 64, kernel_size=(3, 3), stride=(1, 1), padding=(1, 1))
          (batch_norm1): Identity()
          (batch_norm2): Identity()
          (act): CNO_LReLu(
            (act): LeakyReLU(negative_slope=0.01)
          )
        )
        (3): ResidualBlock(
          (convolution1): Conv2d(64, 64, kernel_size=(3, 3), stride=(1, 1), padding=(1, 1))
          (convolution2): Conv2d(64, 64, kernel_size=(3, 3), stride=(1, 1), padding=(1, 1))
          (batch_norm1): Identity()
          (batch_norm2): Identity()
          (act): CNO_LReLu(
            (act): LeakyReLU(negative_slope=0.01)
          )
        )
      )
    )
  )
)
Epoch 0, Train Loss: 0.25777592, Val Loss: 0.10072065
[1;34mwandb[0m: 
[1;34mwandb[0m: 🚀 View run [33mcerulean-eon-1[0m at: [34mhttps://wandb.ai/rohanvk-carnegie-mellon-university/cno2d/runs/sca9uw5x[0m
…
