…
Current Spatial Size: 512
x shape: torch.Size([3992, 3, 512, 512])
y shape: torch.Size([3992, 3, 512, 512])
---------Computing min-max normalization statistics---------------
Input data range: [-2.759037, 2.506686]
Output data range: [-2.752234, 2.492671]
Train dataset size: 3193
Validation dataset size: 399
Test dataset size: 400
<class 'torch.Tensor'> 0.524234414100647 0.5250188708305359 0.09849084168672562 0.09881822764873505
Sample Input shape: torch.Size([32, 3, 512, 512])
Sample Output shape: torch.Size([32, 3, 512, 512])
CNO2d(
  (lift): LiftProjectBlock(
    (inter_CNOBlock): CNOBlock(
      (convolution): Conv2d(3, 64, kernel_size=(3, 3), stride=(1, 1), padding=(1, 1))
      (batch_norm): Identity()
      (act): CNO_LReLu(
        (act): LeakyReLU(negative_slope=0.01)
      )
    )
    (convolution): Conv2d(64, 8, kernel_size=(3, 3), stride=(1, 1), padding=(1, 1))
  )
  (project): LiftProjectBlock(
    (inter_CNOBlock): CNOBlock(
      (convolution): Conv2d(16, 64, kernel_size=(3, 3), stride=(1, 1), padding=(1, 1))
      (batch_norm): Identity()
      (act): CNO_LReLu(
        (act): LeakyReLU(negative_slope=0.01)
      )
    )
    (convolution): Conv2d(64, 3, kernel_size=(3, 3), stride=(1, 1), padding=(1, 1))
  )
  (encoder): ModuleList(
    (0): CNOBlock(
      (convolution): Conv2d(8, 16, kernel_size=(3, 3), stride=(1, 1), padding=(1, 1))
      (batch_norm): Identity()
      (act): CNO_LReLu(
        (act): LeakyReLU(negative_slope=0.01)
      )
    )
  )
  (ED_expansion): ModuleList(
    (0): CNOBlock(
      (convolution): Conv2d(8, 8, kernel_size=(3, 3), stride=(1, 1), padding=(1, 1))
      (batch_norm): Identity()
      (act): CNO_LReLu(
        (act): LeakyReLU(negative_slope=0.01)
      )
    )
    (1): CNOBlock(
      (convolution): Conv2d(16, 16, kernel_size=(3, 3), stride=(1, 1), padding=(1, 1))
      (batch_norm): Identity()
      (act): CNO_LReLu(
        (act): LeakyReLU(negative_slope=0.01)
      )
    )
  )
  (decoder): ModuleList(
    (0): CNOBlock(
      (convolution): Conv2d(16, 8, kernel_size=(3, 3), stride=(1, 1), padding=(1, 1))
      (batch_norm): Identity()
      (act): CNO_LReLu(
        (act): LeakyReLU(negative_slope=0.01)
      )
    )
  )
  (res_net_neck): ResNet(
    (res_nets): Sequential(
      (0): ResidualBlock(
        (convolution1): Conv2d(16, 16, kernel_size=(3, 3), stride=(1, 1), padding=(1, 1))
        (convolution2): Conv2d(16, 16, kernel_size=(3, 3), stride=(1, 1), padding=(1, 1))
        (batch_norm1): Identity()
        (batch_norm2): Identity()
        (act): CNO_LReLu(
          (act): LeakyReLU(negative_slope=0.01)
        )
      )
      (1): ResidualBlock(
        (convolution1): Conv2d(16, 16, kernel_size=(3, 3), stride=(1, 1), padding=(1, 1))
        (convolution2): Conv2d(16, 16, kernel_size=(3, 3), stride=(1, 1), padding=(1, 1))
        (batch_norm1): Identity()
        (batch_norm2): Identity()
        (act): CNO_LReLu(
          (act): LeakyReLU(negative_slope=0.01)
        )
      )
      (2): ResidualBlock(
        (convolution1): Conv2d(16, 16, kernel_size=(3, 3), stride=(1, 1), padding=(1, 1))
        (convolution2): Conv2d(16, 16, kernel_size=(3, 3), stride=(1, 1), padding=(1, 1))
        (batch_norm1): Identity()
        (batch_norm2): Identity()
        (act): CNO_LReLu(
          (act): LeakyReLU(negative_slope=0.01)
        )
      )
      (3): ResidualBlock(
        (convolution1): Conv2d(16, 16, kernel_size=(3, 3), stride=(1, 1), padding=(1, 1))
        (convolution2): Conv2d(16, 16, kernel_size=(3, 3), stride=(1, 1), padding=(1, 1))
        (batch_norm1): Identity()
        (batch_norm2): Identity()
        (act): CNO_LReLu(
          (act): LeakyReLU(negative_slope=0.01)
        )
      )
    )
  )
  (res_nets): Sequential(
    (0): ResNet(
      (res_nets): Sequential(
        (0): ResidualBlock(
          (convolution1): Conv2d(8, 8, kernel_size=(3, 3), stride=(1, 1), padding=(1, 1))
          (convolution2): Conv2d(8, 8, kernel_size=(3, 3), stride=(1, 1), padding=(1, 1))
          (batch_norm1): Identity()
          (batch_norm2): Identity()
          (act): CNO_LReLu(
            (act): LeakyReLU(negative_slope=0.01)
          )
        )
        (1): ResidualBlock(
          (convolution1): Conv2d(8, 8, kernel_size=(3, 3), stride=(1, 1), padding=(1, 1))
          (convolution2): Conv2d(8, 8, kernel_size=(3, 3), stride=(1, 1), padding=(1, 1))
          (batch_norm1): Identity()
          (batch_norm2): Identity()
          (act): CNO_LReLu(
            (act): LeakyReLU(negative_slope=0.01)
          )
        )
        (2): ResidualBlock(
          (convolution1): Conv2d(8, 8, kernel_size=(3, 3), stride=(1, 1), padding=(1, 1))
          (convolution2): Conv2d(8, 8, kernel_size=(3, 3), stride=(1, 1), padding=(1, 1))
          (batch_norm1): Identity()
          (batch_norm2): Identity()
          (act): CNO_LReLu(
            (act): LeakyReLU(negative_slope=0.01)
          )
        )
        (3): ResidualBlock(
          (convolution1): Conv2d(8, 8, kernel_size=(3, 3), stride=(1, 1), padding=(1, 1))
          (convolution2): Conv2d(8, 8, kernel_size=(3, 3), stride=(1, 1), padding=(1, 1))
          (batch_norm1): Identity()
          (batch_norm2): Identity()
          (act): CNO_LReLu(
            (act): LeakyReLU(negative_slope=0.01)
          )
        )
      )
    )
  )
)
[1;34mwandb[0m: 
[1;34mwandb[0m: 🚀 View run [33meager-armadillo-4[0m at: [34mhttps://wandb.ai/rohanvk-carnegie-mellon-university/cno2d/runs/byg3jwnl[0m
…
