…
Current Spatial Size: 512
x shape: torch.Size([3992, 3, 512, 512])
y shape: torch.Size([3992, 3, 512, 512])
---------Computing min-max normalization statistics---------------
Input data range: [-2.759037, 2.506686]
Output data range: [-2.752234, 2.492671]
Train dataset size: 3193
Validation dataset size: 399
Test dataset size: 400
<class 'torch.Tensor'> 0.5246688723564148 0.5254554152488708 0.09587739408016205 0.09622360020875931
Sample Input shape: torch.Size([2, 3, 512, 512])
Sample Output shape: torch.Size([2, 3, 512, 512])
CNO2d(
  (lift): LiftProjectBlock(
    (inter_CNOBlock): CNOBlock(
      (convolution): Conv2d(3, 64, kernel_size=(3, 3), stride=(1, 1), padding=(1, 1))
      (batch_norm): Identity()
      (act): CNO_LReLu(
        (act): LeakyReLU(negative_slope=0.01)
      )
    )
    (convolution): Conv2d(64, 8, kernel_size=(3, 3), stride=(1, 1), padding=(1, 1))
  )
  (project): LiftProjectBlock(
    (inter_CNOBlock): CNOBlock(
      (convolution): Conv2d(16, 64, kernel_size=(3, 3), stride=(1, 1), padding=(1, 1))
      (batch_norm): Identity()
      (act): CNO_LReLu(
        (act): LeakyReLU(negative_slope=0.01)
      )
    )
    (convolution): Conv2d(64, 3, kernel_size=(3, 3), stride=(1, 1), padding=(1, 1))
  )
  (encoder): ModuleList(
    (0): CNOBlock(
      (convolution): Conv2d(8, 16, kernel_size=(3, 3), stride=(1, 1), padding=(1, 1))
      (batch_norm): Identity()
      (act): CNO_LReLu(
        (act): LeakyReLU(negative_slope=0.01)
      )
    )
  )
  (ED_expansion): ModuleList(
    (0): CNOBlock(
      (convolution): Conv2d(8, 8, kernel_size=(3, 3), stride=(1, 1), padding=(1, 1))
      (batch_norm): Identity()
      (act): CNO_LReLu(
        (act): LeakyReLU(negative_slope=0.01)
      )
    )
    (1): CNOBlock(
      (convolution): Conv2d(16, 16, kernel_size=(3, 3), stride=(1, 1), padding=(1, 1))
      (batch_norm): Identity()
      (act): CNO_LReLu(
        (act): LeakyReLU(negative_slope=0.01)
      )
    )
  )
  (decoder): ModuleList(
    (0): CNOBlock(
      (convolution): Conv2d(16, 8, kernel_size=(3, 3), stride=(1, 1), padding=(1, 1))
      (batch_norm): Identity()
      (act): CNO_LReLu(
        (act): LeakyReLU(negative_slope=0.01)
      )
    )
  )
  (res_net_neck): ResNet(
    (res_nets): Sequential(
      (0): ResidualBlock(
        (convolution1): Conv2d(16, 16, kernel_size=(3, 3), stride=(1, 1), padding=(1, 1))
        (convolution2): Conv2d(16, 16, kernel_size=(3, 3), stride=(1, 1), padding=(1, 1))
        (batch_norm1): Identity()
        (batch_norm2): Identity()
        (act): CNO_LReLu(
          (act): LeakyReLU(negative_slope=0.01)
        )
      )
      (1): ResidualBlock(
        (convolution1): Conv2d(16, 16, kernel_size=(3, 3), stride=(1, 1), padding=(1, 1))
        (convolution2): Conv2d(16, 16, kernel_size=(3, 3), stride=(1, 1), padding=(1, 1))
        (batch_norm1): Identity()
        (batch_norm2): Identity()
        (act): CNO_LReLu(
          (act): LeakyReLU(negative_slope=0.01)
        )
      )
      (2): ResidualBlock(
        (convolution1): Conv2d(16, 16, kernel_size=(3, 3), stride=(1, 1), padding=(1, 1))
        (convolution2): Conv2d(16, 16, kernel_size=(3, 3), stride=(1, 1), padding=(1, 1))
        (batch_norm1): Identity()
        (batch_norm2): Identity()
        (act): CNO_LReLu(
          (act): LeakyReLU(negative_slope=0.01)
        )
      )
      (3): ResidualBlock(
        (convolution1): Conv2d(16, 16, kernel_size=(3, 3), stride=(1, 1), padding=(1, 1))
        (convolution2): Conv2d(16, 16, kernel_size=(3, 3), stride=(1, 1), padding=(1, 1))
        (batch_norm1): Identity()
        (batch_norm2): Identity()
        (act): CNO_LReLu(
          (act): LeakyReLU(negative_slope=0.01)
        )
      )
    )
  )
  (res_nets): Sequential(
    (0): ResNet(
      (res_nets): Sequential(
        (0): ResidualBlock(
          (convolution1): Conv2d(8, 8, kernel_size=(3, 3), stride=(1, 1), padding=(1, 1))
          (convolution2): Conv2d(8, 8, kernel_size=(3, 3), stride=(1, 1), padding=(1, 1))
          (batch_norm1): Identity()
          (batch_norm2): Identity()
          (act): CNO_LReLu(
            (act): LeakyReLU(negative_slope=0.01)
          )
        )
        (1): ResidualBlock(
          (convolution1): Conv2d(8, 8, kernel_size=(3, 3), stride=(1, 1), padding=(1, 1))
          (convolution2): Conv2d(8, 8, kernel_size=(3, 3), stride=(1, 1), padding=(1, 1))
          (batch_norm1): Identity()
          (batch_norm2): Identity()
          (act): CNO_LReLu(
            (act): LeakyReLU(negative_slope=0.01)
          )
        )
        (2): ResidualBlock(
          (convolution1): Conv2d(8, 8, kernel_size=(3, 3), stride=(1, 1), padding=(1, 1))
          (convolution2): Conv2d(8, 8, kernel_size=(3, 3), stride=(1, 1), padding=(1, 1))
          (batch_norm1): Identity()
          (batch_norm2): Identity()
          (act): CNO_LReLu(
            (act): LeakyReLU(negative_slope=0.01)
          )
        )
        (3): ResidualBlock(
          (convolution1): Conv2d(8, 8, kernel_size=(3, 3), stride=(1, 1), padding=(1, 1))
          (convolution2): Conv2d(8, 8, kernel_size=(3, 3), stride=(1, 1), padding=(1, 1))
          (batch_norm1): Identity()
          (batch_norm2): Identity()
          (act): CNO_LReLu(
            (act): LeakyReLU(negative_slope=0.01)
          )
        )
      )
    )
  )
)
Epoch 0, Train Loss: 0.03176689, Val Loss: 0.01422866
Test L2 Loss: 0.014293
Model saved to checkpoints/cno2d/navier_stokes_0_5137334.pt
Using provided normalization statistics from training resolution 512:
…
